time_counter/face_racgnization/data/model/model.pth (torch, 329339 bytes, 8 tensors)

conv1.0.weight f4 [16, 3, 5, 5]
000000 36 4b 98 3d dd f1 28 3c f3 d8 00 39 db 62 bc bc
       0.0743622 0.010311571 0.00012287851 -0.022996357
000010 e0 51 0f 3d ec 7f af bd 0d 7a 72 bd 75 5f ac 3d
       0.03499019 -0.08569321 -0.059198428 0.084166445
000020 2f 36 6f bc 3c 21 21 bd 32 16 7c bd 57 24 d7 3d
       -0.014600321 -0.039338335 -0.061544605 0.10504978
000030 3f bf 9c ba 7e d5 a3 bd 0e bb b6 bd a6 9f c1 3d
       -0.0011958851 -0.07999705 -0.089223966 0.09454279
000040 0e 30 98 3d 54 5b d5 bc 06 14 44 bd ae 8b d4 3d
       0.07431041 -0.026044525 -0.04787066 0.10378204
000050 cc cf f3 3d df ef 9a 3d 13 2d 5a bd f1 23 c0 bd
       0.119048685 0.07565283 -0.053265642 -0.09381855
000060 cf 43 a9 3d c3 15 7f 3b 8a 1a b6 3c 91 8d ed 3d
       0.082648866 0.0038922883 0.022229452 0.11599267
000070 65 67 c5 3c 3b 57 f2 3c 10 f3 f6 b9 b8 a7 04 3e
       0.024097154 0.02958261 -0.00047101872 0.12954605
000080 fa e5 f2 3c b7 5c 96 3d f5 34 28 bd 3f 43 92 3b
       0.029650677 0.07341903 -0.04106613 0.0044635828
000090 5c 43 05 bd 9b 21 50 bb 49 7f c2 3d 35 ec 4c bd
       -0.032534942 -0.0031758312 0.09496934 -0.050029952
0000a0 b6 14 1e 3d 96 46 13 bd 96 d1 8d bd ba 6c 0e bd
       0.03859397 -0.035955988 -0.06924741 -0.03477166
0000b0 1b 4a 0c 3e dc 09 ba 3c 03 cc 61 3d 45 2d 39 3d
       0.13700144 0.02270978 0.0551262 0.045209188
0000c0 b3 76 86 bd a2 49 16 3e fc ca 55 bd 38 6a 82 3d
       -0.06565609 0.14676526 -0.052195534 0.06367916
0000d0 80 b2 82 bd e7 f8 37 3d 47 ad a2 3d 04 a0 e0 3b
       -0.063817024 0.044915106 0.07943206 0.006855013
0000e0 29 ce 22 bd ef a4 9f 3c 0b 1e a8 3d 3f 6d d2 3d
       -0.03974739 0.019487826 0.08208855 0.10274743
0000f0 21 28 0a bd 80 47 1d 3c 49 15 01 3c ab a7 4b bd
       -0.033729676 0.009599566 0.00787861 -0.049720448
000100 b4 8f 00 bd ac d8 d3 3d 10 6b 02 3e 3e de bc 3d
       -0.031387046 0.10344061 0.12736154 0.09222077
000110 cd 67 cc 3d d2 69 72 3d de a8 f6 3d 99 b6 d4 3b
       0.09980736 0.05918295 0.120439276 0.006491494
000120 ce 11 06 3d 8f 78 16 3e d9 6b f5 3d 4d ae 1a bd
       0.032731824 0.14694427 0.11983461 -0.037763882
000130 b6 4e 7b 3d 9c 19 c4 3d b6 46 9b bd 54 01 30 3d
       0.06135436 0.09575197 -0.075818464 0.042970017
000140 50 95 a2 bd cc 48 e9 3b d5 91 a9 3b 06 7e 64 bd
       -0.07938635 0.0071192738 0.0051748552 -0.055784248
000150 de ce 12 3d 2a 06 7d 3d 4d 5e 17 bc 7c b5 91 3d
       0.035841815 0.061773457 -0.009238792 0.071146935
000160 b7 4e 8e 3c fc 3c 0a bd 56 4b 1e 3d af ef 3d 3d
       0.017371519 -0.033749565 0.038646065 0.04637116
000170 4e f1 2e 3c e2 30 80 bd df 25 3b 3d 7b 03 fa bd
       0.010677649 -0.06259324 0.045690414 -0.12207695
000180 95 9a dc bc 16 9f 08 3d ea fc 59 bd 3a c5 a3 3d
       -0.02692918 0.03335484 -0.053219713 0.07996602
000190 49 38 9b bd 8c 80 40 3d 73 5b dd 3c 22 54 7b bc
       -0.07579095 0.04699759 0.027021145 -0.015339883
0001a0 c1 bc 9c 3d 9d 64 84 bd 3a c6 6e bc 9b e4 1c bd
       0.076531895 -0.06464503 -0.014573628 -0.038303953
0001b0 b4 13 5c 3b eb 54 c4 bc 3e fe 40 3d de f6 61 3d
       0.003358108 -0.023966273 0.047117464 0.05516707
0001c0 b6 bf 83 3d f8 c4 16 bc 90 92 17 bc 43 fd 85 bd
       0.0643305 -0.009202234 -0.009251252 -0.065424465
0001d0 fc 5d 61 3c 3b 37 c1 bd f7 16 ec 3c 5e 10 c8 3d
       0.013755318 -0.094343625 0.028819544 0.09768747
0001e0 3b 2f 8b 3d 72 11 f3 b9 15 76 66 bd ea 9b b5 3c
       0.06796118 -0.0004636157 -0.056264956 0.022169072
0001f0 cf e6 4b 3b 77 91 89 bd fe 6a 4d 3c dd 15 81 bd
       0.0031112914 -0.06717198 0.012537716 -0.06302998
000200 6a 1b 9c 3d da f2 92 bd a2 6a af bd 60 39 bc bc
       0.07622416 -0.071752265 -0.085652605 -0.022976577
000210 e2 82 68 3d b5 a7 c0 3d 4f 67 e7 bd 8f 94 6e bd
       0.056765445 0.094069876 -0.112990014 -0.058247145
000220 a4 93 81 3d 36 31 ad 3d b6 02 b9 bd ac 28 49 3b
       0.06326988 0.08456652 -0.0903372 0.0030694408
000230 09 cb 5d 3d 42 7d 2f bb 27 43 7b 3d 96 86 05 bd
       0.054148708 -0.002677754 0.06134334 -0.032599054
000240 da 70 4f bb f9 ac 4c bc 2b 77 b3 3d c8 2b 94 bd
       -0.0031652958 -0.012492412 0.08762964 -0.07234913
000250 b9 30 08 bd 9d 31 d5 3d 82 70 5a bd ba 6d 4b 3c
       -0.03324959 0.104098536 -0.053329952 0.012416298
000260 c1 0d 76 3d 44 8e 0e bd d4 6b ac bc 23 b1 69 bb
       0.06007171 -0.034803644 -0.02104751 -0.003565856
000270 63 47 cc 3c 6e 53 c1 bd 4b b9 3e 3d 16 17 e9 39
       0.024936384 -0.09439741 0.046563428 0.00044458424
000280 30 e9 ea 3c 01 17 f9 bc b5 17 9e 3d 76 79 62 3d
       0.028675646 -0.030406477 0.077193655 0.055291615
000290 bb 01 9f bd 77 ee bf 3a dc 95 eb 3d 07 86 87 bd
       -0.07764002 0.0014643212 0.11503193 -0.066173606
0002a0 99 d6 b3 bd ad 79 cd 3d 7e c0 ee 3d 42 03 6f bd
       -0.08781166 0.100329734 0.11657809 -0.058352716
0002b0 46 7d d0 3a 03 e3 3d 3d aa 07 dd b9 6d 40 84 3d
       0.0015906475 0.046359073 -0.00042158115 0.06457601
0002c0 76 bd 9f 3d 87 1f d9 3d f4 d1 b3 bd c4 23 b8 bd
       0.07799809 0.106017165 -0.0878028 -0.08991197
0002d0 10 bc a1 bd af 26 a0 bc db c1 d3 3d 1c 4f 04 bd
       -0.07897198 -0.019549696 0.10339709 -0.032302007
0002e0 38 9e a3 3d 9c b6 68 3d 1b e3 5c 3d 2b 07 b1 bd
       0.07989162 0.056814775 0.053927522 -0.08643945
0002f0 b1 99 f9 bc 72 09 6f 3d 87 c0 a1 3c 8d e9 33 bd
       -0.030468794 0.058358617 0.019745125 -0.043923903
000300 39 04 d2 3d 59 81 dd bd 98 7b a9 bd a2 b9 82 bc
       0.10254712 -0.10815687 -0.08275527 -0.015957657
000310 8d 24 81 3c ae 9b c9 bd db c9 0f 3d c5 e8 18 3d
       0.0157645 -0.09844147 0.035104614 0.03733136
000320 ff c5 44 bd 1e 40 df 3c 9a e5 d9 3d 53 06 13 3d
       -0.048040386 0.027252253 0.10639496 0.035894703
000330 56 61 b3 bd d5 53 71 3d eb e7 60 bd 42 ed 84 3c
       -0.087588 0.05891784 -0.054908674 0.016226415
000340 2a de 90 3d 81 53 7c bd 56 b0 b2 bc 5c b9 ae 3d
       0.070736244 -0.061603073 -0.0218126 0.08531448
000350 9d 8e 2e 3d a9 8b 65 bd 68 f6 ca bd c1 f8 91 bd
       0.042616475 -0.056041393 -0.099102795 -0.07127524
000360 64 96 b3 bc aa ae c9 bd 97 71 a6 bd b9 d9 d9 bd
       -0.021922298 -0.09847768 -0.08127134 -0.106372304
000370 c7 f5 13 bd 46 c2 b7 3d b2 40 69 bd 7f 8d 1f 3d
       -0.036123063 0.089726016 -0.056946464 0.0389533
000380 a4 12 e1 3c 37 f2 15 3d 59 a7 02 3e 54 7a 5e 3c
       0.027474709 0.036607947 0.1275915 0.01357897
000390 b4 e9 9f 3d e7 c6 bb bd 70 ee 74 3d 12 db 01 bd
       0.07808247 -0.09168797 0.059797704 -0.031703062
0003a0 66 06 9d 3c b8 b5 dd 3c 75 bf 02 3e 3e 9f 61 3d
       0.01916809 0.02706419 0.12768348 0.055083506
0003b0 06 cc 90 bd 51 01 c6 bb ca 6c f3 3d 6f 62 8b 3c
       -0.070701644 -0.0060426374 0.11885984 0.01701471
0003c0 e1 57 20 bd 60 98 6a bd 12 86 a7 3d e8 e3 dd 3b
       -0.039146308 -0.057274222 0.08179869 0.0067715533
0003d0 94 53 dd 3d f3 04 a5 3d 95 5e a3 3d 84 c5 a1 bd
       0.10806957 0.080575846 0.079770245 -0.07899001
0003e0 95 0c 98 bd c3 ee 94 3d c5 34 4a bd b8 5c 31 3c
       -0.07424275 0.07272103 -0.04936673 0.0108253285
0003f0 58 32 4a 3d 18 10 e3 3d 0e 03 f2 bc 00 fe 83 bc
       0.049364418 0.11087054 -0.029542472 -0.016112328

conv1.0.bias f4 [16]
000000 b4 f3 0b be 79 0c d6 bd 19 29 a2 3d 72 de 47 bd
       -0.13667184 -0.10451598 0.07917995 -0.048796125
000010 a2 6a 06 be 75 7f a8 3b 50 2e e6 3b a6 a2 6d 3d
       -0.13126615 0.005142147 0.007024564 0.05801644
000020 96 b0 b4 bb 0e b9 88 bd a8 f8 f5 3c f6 6d 9e bd
       -0.0055142147 -0.066759214 0.030025795 -0.07735817
000030 d6 3d c6 3b 15 9a 11 bd 56 2a 42 3d db 4a b2 3a
       0.006049852 -0.035547335 0.047403656 0.0013602631

conv2.0.weight f4 [32, 16, 5, 5]
000000 7e 58 56 bc c0 e6 c7 3c 14 8c 1e 3d 9c 2c 67 bc
       -0.013082622 0.024402022 0.038707808 -0.014109757
000010 02 3f 26 bc ed f3 38 bd 03 e3 13 3b 5a 66 63 bd
       -0.010146858 -0.0451545 0.002256573 -0.055517532
000020 8d 3d 46 bd 39 a3 20 bd 69 6c 89 bc bf 8d 93 3c
       -0.048398543 -0.03921816 -0.016775327 0.018011926
000030 e0 52 e8 3c 11 d9 2e bd d1 7d e4 bc d8 79 54 bc
       0.02835983 -0.04268748 -0.027892025 -0.012968503
000040 64 32 de 3c f9 b8 4b bd 8a c3 a0 3c f9 7c 5c bb
       0.027123637 -0.04973695 0.01962449 -0.0033643825
000050 64 77 b3 bc b9 e8 cd 3a 7d 43 1a 3c e4 4a 3b bd
       -0.021907516 0.0015709616 0.0094155045 -0.04572572
000060 8d 5e ba bc 75 71 08 3d 27 1f 36 bd 87 6e 32 bc
       -0.022750163 0.033311326 -0.044463303 -0.01089061
000070 08 20 35 bd 00 79 85 3c 1c 96 13 3d a5 49 23 3d
       -0.04422 0.016293049 0.036031827 0.039865155
000080 a6 52 55 bd e0 53 b1 bc b7 59 30 ba 4c dd 46 bd
       -0.052080773 -0.02164644 -0.0006727236 -0.04855089
000090 44 3d 22 bd 99 fa 42 bd 70 a2 e3 bb 6c 8a 0a bc
       -0.03960921 -0.04760227 -0.0069468543 -0.008455854
0000a0 41 64 10 bb f3 80 2c 3c f4 2e 21 3d 5a e9 30 bc
       -0.0022032412 0.010528791 0.03935142 -0.010797823
0000b0 a0 1e b8 3b a7 31 e5 3c 77 37 08 bd 6b 59 0f bd
       0.005618885 0.027977778 -0.03325602 -0.034997385
0000c0 00 b0 14 bd 33 85 a7 3b ee 2f 67 3c 01 df 35 bd
       -0.03630066 0.005112314 0.014110548 -0.044402126
0000d0 01 b6 36 3d df cf e4 3b a8 fe b3 bc ac 9f 03 bd
       0.044607166 0.006982788 -0.021972016 -0.032134697
0000e0 b3 11 95 3c 36 fc 0c 3c c2 ab 2f bc f8 72 ef ba
       0.018196916 0.008605054 -0.010722103 -0.0018268516
0000f0 7b 1d ed bc 32 5d b3 bc 71 22 16 3d 64 41 ba bc
       -0.028944721 -0.021895025 0.03665394 -0.022736259
000100 d1 d5 fd bc 6a 39 bc 39 77 76 5c 3c 06 ac 1e 3d
       -0.030985745 0.0003590093 0.013455979 0.038738273
000110 4b b2 1b 3d b6 5d 51 bd 55 44 94 bc 7d d2 ff 3b
       0.03801183 -0.05111476 -0.01809899 0.0078070746
000120 bf 35 1e bc d1 5c 82 bc db d0 f1 bc 04 4b ff bc
       -0.009656369 -0.015913399 -0.029518535 -0.0311637
000130 c5 7d 76 bc 20 57 24 bd 37 6d 17 3d 24 ad 2b 3d
       -0.015044634 -0.04012215 0.03696939 0.041913167
000140 ab 92 3a bd 88 ea 3f bc 40 17 00 3d a0 cd b7 bc
       -0.04555003 -0.011713631 0.031272173 -0.022436917
000150 74 0b 4b bc 52 35 01 3d a0 a8 85 3c 2b 6d 53 3c
       -0.012392867 0.03154499 0.016315758 0.012904446
000160 cd 60 ca bc 3a 09 3b bc b7 bb 5d bc f3 6f fc 3b
       -0.024704361 -0.011415774 -0.013533524 0.007703775
000170 78 b5 9c bc 94 26 f7 bc bc a6 a2 3b 94 4d 76 bc
       -0.0191295 -0.030169763 0.004963724 -0.0150331445
000180 85 98 24 3d 1f e0 80 bc c4 9e 4e bd 6f 00 2c 3c
       0.040184516 -0.01573187 -0.05044438 0.01049815
000190 bb 73 1d 3d d9 9b 59 bc 0c 37 ed bc d4 f1 26 3a
       0.038440447 -0.013281786 -0.028956912 0.00063684327
0001a0 1d af 0c 3b 3b 6c da bc 89 59 1c bd 45 32 19 bd
       0.002146668 -0.026662936 -0.038171325 -0.037401456
0001b0 0c 24 4c bd b8 38 c5 3b b8 35 00 bd 3f f7 3c bd
       -0.049839064 0.0060187243 -0.03130123 -0.04613423
0001c0 cd 68 0c 3d 79 6d bf 3b ce 6d e2 3c 25 e5 2d bc
       0.034279633 0.0058419076 0.02764025 -0.010613714
0001d0 7f 85 83 bb 80 59 ab bc 5c 67 30 3d b3 6e 19 3d
       -0.0040137167 -0.0209167 0.04306732 0.037459087
0001e0 83 ca 02 bd 2e 7b 4a bd 6f f4 28 bc 87 8c 1b 3d
       -0.03193141 -0.04943388 -0.010312184 0.037975814
0001f0 1b df 48 bd 63 fe 05 bd 9e 7f 7c bc e2 43 e4 bb
       -0.049040895 -0.032713305 -0.015411286 -0.0069661
000200 ba bc b1 bc 69 f2 18 bd 43 8a 1b 3d bf b9 c0 bc
       -0.021696437 -0.037340555 0.037973654 -0.02352607
000210 cc de 3b bc a7 78 a2 3a c9 b1 3a bc 7b d3 da 3c
       -0.011466693 0.0012395576 -0.011394926 0.02671217
000220 f0 d3 1f bd eb 65 27 3d 51 c8 35 bd 1e 73 a8 3c
       -0.03902048 0.04086868 -0.04438049 0.020562705
000230 a5 16 b5 3c bd aa 51 bd 54 fb bf bc 62 e5 81 3c
       0.022105524 -0.05118822 -0.023435272 0.015856449
000240 0e 5b b2 bb 43 60 21 bd 21 0f d6 3c 16 21 2c bd
       -0.0054429835 -0.039398443 0.02613026 -0.04202374
000250 6c d7 96 bc 45 31 09 3d 17 b5 28 3c 57 e2 1d bd
       -0.018413268 0.033494253 0.010297081 -0.038545933
000260 a8 76 3c bd de f9 e5 ba 2e a8 3c 3c 28 fe 78 3c
       -0.046011597 -0.001754578 0.011514707 0.015197314
000270 06 e3 5d 3c 66 7e 11 3d e9 95 10 3c 44 de 97 bc
       0.013542896 0.035520934 0.008824804 -0.018538602
000280 c1 89 55 bd d5 5b 56 bc 43 0e 4b bd 52 31 e6 3b
       -0.052133325 -0.013083418 -0.049574148 0.0070249224
000290 af 07 42 bd 03 77 c3 bc c9 8f 4a bd 95 75 74 bd
       -0.04737061 -0.02386046 -0.04945353 -0.059682447
0002a0 72 ff a5 3b 83 b7 82 3a fd 3f c8 bc 71 d3 04 bd
       0.005065852 0.0009972904 -0.024444574 -0.03242821
0002b0 e7 61 5b bd 9c 21 18 bb e5 b1 40 bb 20 55 79 3c
       -0.053560164 -0.0023213392 -0.0029402908 0.015218049
0002c0 07 56 09 bd 48 7d c7 3c d4 c1 33 3d 65 ab 08 3d
       -0.033529308 0.024351731 0.04388602 0.03336658
0002d0 6c e9 2c 3d 26 ee 30 bb 12 a8 ad 3c ed dc ff bb
       0.042214796 -0.0026997416 0.021198306 -0.007808319
0002e0 6e 99 70 bc 25 5f 12 3d 98 87 82 bb 7b bd 80 bc
       -0.014685018 0.03573527 -0.003983449 -0.015715351
0002f0 ce 6b db bc 4d 34 f8 bc 78 ba 59 3c 05 49 10 3c
       -0.026784804 -0.030298376 0.0132890865 0.008806472
000300 69 e7 2f 3c c9 c4 1a bd 30 1f c1 ba a0 30 5c 3c
       0.010736325 -0.037785325 -0.0014734026 0.0134393275
000310 24 75 e1 3c b6 f1 29 3d 37 b7 44 bd 01 58 14 bc
       0.027521677 0.04149028 -0.04802629 -0.009054185
000320 31 d0 57 bd 29 2b 8f bc 71 4a fc 3a c0 b7 29 bb
       -0.05268878 -0.017476635 0.001924826 -0.0025896877
000330 ff 67 ba 3c 44 3c 48 bd b9 d9 38 bd 10 83 74 3c
       0.022754667 -0.0488856 -0.04512951 0.014923826
000340 87 4e 2c bd a3 c1 c9 bc a8 0c c3 3b ee 1e 0f bd
       -0.042067077 -0.024628466 0.0059524365 -0.034941606
000350 a0 ff b3 bc a4 c8 07 3d a8 3f 18 bd 24 d9 59 bc
       -0.021972477 0.03315033 -0.037170082 -0.013296399
000360 38 2b f9 3c fb 78 5e bd 4b 73 1c 3d 3a 8d ca 3c
       0.030416116 -0.054314595 0.03819589 0.024725545
000370 e2 b2 45 bd 2b bb 08 3d 6e f0 f3 3b 5c 25 fd 3c
       -0.0482663 0.033381622 0.007444433 0.030901603
000380 96 f1 f7 bb fc a3 9d bc 12 1b 2c bc 07 0c b7 3c
       -0.007566641 -0.019243233 -0.010504501 0.022344602
000390 f8 5d 56 bd 92 7c b2 3b ad 78 0d 39 5a a9 34 bd
       -0.05233571 0.005446979 0.00013491763 -0.04410682
0003a0 c9 c8 7f 3c f9 b3 a7 3c 80 83 1c bc cb 52 3a 3c
       0.015611836 0.02047156 -0.009552836 0.011372278
0003b0 22 50 00 bb 50 8a 5e bd 16 18 2f bb a4 03 05 3d
       -0.0019579013 -0.054331124 -0.0026717237 0.032474175
0003c0 58 8d 0c bd df bc d8 3c c0 23 b6 3c b6 52 ba 3c
       -0.034314483 0.026457248 0.022233844 0.022744518
0003d0 aa 94 b1 bb 9c 58 2d 3d e7 39 2f bd d4 57 07 bd
       -0.0054193335 0.042320833 -0.04277983 -0.033042744
0003e0 e1 c5 14 3c e5 01 dd 3c ba 64 2a bd 18 13 18 3c
       0.009080381 0.026978442 -0.041599967 0.009281896
0003f0 d8 0a 3e bd c8 8d 52 bd df 72 ed 3b 86 df 23 3d
       -0.04639706 -0.051404744 0.0072463597 0.04000809

conv2.0.bias f4 [32]
000000 ea da 48 bd 01 e5 9d 3d 99 f9 eb 3c 6e 01 b0 3c
       -0.049036898 0.07709695 0.02880554 0.021485057
000010 ae a4 18 bc f8 01 16 3d 1b b4 3a bd a5 5c 5a 3c
       -0.009316606 0.03662297 -0.04558192 0.013327752
000020 fa cf c8 3a 90 1f 07 bd c3 86 12 3d 58 5f 97 bc
       0.0015320771 -0.032989085 0.03577305 -0.01847808
000030 6f 14 b0 bc 80 9c 5e bd 85 e8 06 bd fc ce 3c bc
       -0.021494118 -0.05434847 -0.03293659 -0.011523958
000040 60 1a e5 3c 33 52 21 3c 8e 2b 13 3c 87 bd 37 3b
       0.027966678 0.009846258 0.008982552 0.002803655
000050 bb b9 92 bc b7 ad 09 3c 29 67 b8 3c 3d db 94 bc
       -0.017910829 0.008403233 0.022510128 -0.018170947
000060 53 72 38 bd dc df 60 bc 5a 8d 27 bd 4f 5f 86 bc
       -0.045030903 -0.013725247 -0.040906288 -0.016402869
000070 dd f6 5f bd 0c 08 d6 3b 8b 09 ff bc b9 29 a0 bc
       -0.054678787 0.006531721 -0.03113248 -0.019551145

conv3.0.weight f4 [64, 32, 5, 5]
000000 8b 27 89 3c d2 d8 0b 3c 96 ed 22 bc b7 23 04 bd
       0.016742488 0.008535581 -0.00994434 -0.032260623
000010 7b 82 1b bd 61 b4 de bc 1c 45 76 3a f2 b3 f6 3c
       -0.037966233 -0.02718562 0.00093944534 0.030115101
000020 73 56 2c 3c 56 8f 86 3c ca d6 12 bc 8e b1 c6 3b
       0.010518658 0.01642577 -0.0089623425 0.0060636466
000030 cc d6 23 bd 6c 82 36 3c c1 b7 02 bc 36 24 72 bb
       -0.03999977 0.011139493 -0.007978381 -0.0036947853
000040 bb 2a 44 3c 31 0f b9 3c 0d 69 09 bd 9e 1b 74 3c
       0.011973078 0.022590252 -0.03354745 0.014899163
000050 5f d5 45 bc 12 30 d2 bc 0e 08 d6 ba a3 f0 87 3b
       -0.012074797 -0.025657687 -0.0016329305 0.004148559
000060 a6 f3 97 3c d2 b4 1e 3c 0c 2e 63 3b c3 15 c9 bc
       0.018548798 0.009686666 0.0034664897 -0.02454651
000070 12 03 94 bb 4c af 9b 3c ce f3 bc bc 0e 37 be 3c
       -0.0045169676 0.019004487 -0.023065474 0.023219611
000080 fe 3b d5 bb 7b a0 12 3c 72 08 3d bb 67 f5 99 3c
       -0.0065073958 0.008949394 -0.0028844145 0.018793775
000090 13 10 c3 3c 14 86 64 bd 40 fd 49 bc a8 cf 33 bd
       0.023811376 -0.05579193 -0.012328446 -0.04389921
0000a0 9c 74 11 bc a3 8e d3 3a ca 2c 32 bc 5d 3c 0b 3c
       -0.0088778995 0.0016140532 -0.010874936 0.008498278
0000b0 5e c5 6c 3c 0a 25 08 bc 35 1c 8d bc 37 44 7d bc
       0.014451353 -0.008309612 -0.017225364 -0.015458158
0000c0 86 f3 75 bc c3 98 41 3c be b0 0e 3c c4 5d 01 bd
       -0.015011674 0.011816206 0.008709131 -0.031583562
0000d0 04 42 c3 bb cf ae db bc c9 63 75 39 9c 8f 64 39
       -0.0059587974 -0.026816754 0.00023402194 0.00021797273
0000e0 14 72 14 3c 05 7a 10 bd 69 84 61 3b 34 e3 ee bc
       0.0090604015 -0.035272617 0.0034411198 -0.029161073
0000f0 06 f8 9b bc df a7 8a bc df 6a 56 bc 6b f2 2d 3c
       -0.019039165 -0.01692575 -0.0130870035 0.010616879
000100 e1 dc 6c 3c bd 31 76 bc c9 c7 db 3c b0 e3 57 bc
       0.0144569585 -0.015026507 0.026828663 -0.0131768435
000110 dc 0a 79 3c 16 f8 bc 3b 91 27 0b bd f4 9b e8 3a
       0.015200343 0.005766879 -0.03397328 0.0017746673
000120 90 e5 12 bd c5 d5 54 bc 26 fc 16 3c bf 4a 05 bc
       -0.03586346 -0.01299042 0.00921539 -0.008135497
000130 bd 2d b0 3c f6 2d df ba 3c 16 ed bc 26 74 27 3c
       0.021506185 -0.0017027247 -0.028941266 0.010220563
000140 8c 8b 7c bb 01 fe 7c bb 53 30 df 3b 0c ed d9 bc
       -0.0038535325 -0.0038603547 0.0068111806 -0.02660229
000150 05 31 08 bd 67 aa fc bc f8 80 9a 3c 29 96 1a bd
       -0.033249874 -0.030842973 0.018860325 -0.03774086
000160 05 1d 19 bd f2 0b ae 3a 9e f6 00 bd 26 ce 9e 3c
       -0.03738119 0.0013278706 -0.031485192 0.019385409
000170 d7 3b 15 3b 71 fb 20 bd 0c 2e 87 bc 08 f0 15 bd
       0.0022771263 -0.039302293 -0.016501449 -0.036605865
000180 b0 8e 9a bc f7 ec 75 bb 21 ea bb bb 93 54 20 bd
       -0.018866867 -0.0037525275 -0.0057346974 -0.039143156
000190 f5 91 15 bd f9 d7 fb 3b ba b8 3f 3c 2d 7d f3 bc
       -0.03651615 0.007685658 0.011701757 -0.029722774
0001a0 86 7f 17 bc be 92 dd bc 6f 7c dd bc 72 fc 05 bb
       -0.009246713 -0.027047511 -0.027036874 -0.0020444659
0001b0 b4 1e 14 bd 35 ea 4a 3c 21 c7 17 3c 9e eb a1 3c
       -0.036162093 0.012384941 0.009263785 0.019765671
0001c0 6d 6c 86 3c 28 5d da bc 13 35 e4 3c dd e6 9b bc
       0.016409123 -0.026655748 0.027857339 -0.019030983
0001d0 56 44 f9 bc 50 d8 24 bd af 4e 8a 3c e0 44 a4 bc
       -0.030428093 -0.040245354 0.016883222 -0.020052373
0001e0 8b 34 b6 3c 96 d3 07 3c c3 0c b3 bc ca 4c 20 bb
       0.022241851 0.008290192 -0.021856671 -0.0024459832
0001f0 c2 7e d1 bc c9 db cc bc 14 c5 45 bc b6 1d e1 bb
       -0.025573138 -0.025007145 -0.012070913 -0.006869997
000200 52 2d 09 bd 29 d5 65 bc c3 79 2d bb ec 2c 1b bb
       -0.033490486 -0.014027872 -0.002647028 -0.0023677899
000210 5c 15 3c 3c ad b8 f0 3a 1b f5 86 ba 9d 93 b8 3c
       0.011479702 0.0018365585 -0.0010296436 0.022531325
000220 a9 d6 37 bc d8 e8 99 3c fd fd c4 bc 31 b7 bc 3c
       -0.011220613 0.018787786 -0.024046892 0.023036571
000230 b2 7e b4 bb 59 10 14 bd f3 fc a6 3c 57 e1 03 bd
       -0.0055082673 -0.036148403 0.020384287 -0.032197323
000240 ed 16 63 bc da 6c 0b bd 8c 1c a2 3b cf 96 0c 3b
       -0.013860446 -0.034039356 0.0049472507 0.0021452194
000250 a4 db 29 bd a9 4a d2 bb 04 e8 e2 3c ec bd 21 bd
       -0.04146923 -0.0064175916 0.027698524 -0.039487764
000260 2e 2b a5 3b 4b 77 8f 3c d3 da 4b 3c 65 40 54 3c
       0.005040548 0.017512938 0.0124423085 0.012954806
000270 dc 00 42 3c 58 6c a2 bc dd f5 a5 bc d9 70 c5 3c
       0.011841025 -0.019827053 -0.020258838 0.024101662
000280 64 f0 c7 bc 1c 80 ae 3c da 79 b7 bb 30 d5 c9 bc
       -0.02440662 0.021301322 -0.0055992426 -0.024637789
000290 d2 89 42 3a e4 05 91 3c 39 4d 0e bc 6b 7b 5c 3b
       0.00074210495 0.017703004 -0.0086854035 0.0033642899
0002a0 c9 01 ac bc 04 64 6f bc 6a c7 ca bc 88 5f 53 3c
       -0.020996945 -0.014611248 -0.024753291 0.012901194
0002b0 bf 33 91 bb dd 4b aa bc 51 5e 8e 3c a1 9c a9 3c
       -0.0044312174 -0.020788128 0.017378958 0.02070457
0002c0 66 86 ab 3c ec ce bf 3c 1e ca 15 3c e7 40 58 3c
       0.02093811 0.023414098 0.009142427 0.013199068
0002d0 c4 7b a6 bc d4 ce 67 bb d0 d5 c7 bc 4e 21 6e bc
       -0.020322688 -0.0035371082 -0.024393946 -0.014534308
0002e0 e3 18 b6 3c 96 3e 14 bc 94 9d 27 bd 31 58 e5 3a
       0.022228664 -0.009048125 -0.040921763 0.0017497597
0002f0 35 8d 10 3c 53 f4 71 3c ab 3c cf bc 67 8e 8d 3c
       0.008822729 0.014767724 -0.025297483 0.017279817
000300 a5 98 c7 3c af 4a 1c bd 06 10 cb bb 20 56 7e bc
       0.024364779 -0.03815716 -0.0061969785 -0.0155234635
000310 54 9b cc 3c fe 93 ee 3c 51 ca 3b bc e2 f6 c2 bc
       0.02497641 0.029123303 -0.01146181 -0.023799364
000320 da ad c4 3c 03 ab 07 bd 7c c5 91 bc 33 e1 1d ba
       0.02400868 -0.033122074 -0.017794363 -0.0006022632
000330 7e c4 a3 3c 27 2c 84 3b f1 e5 8b bb 7d f5 eb 3a
       0.019991156 0.0040335837 -0.0042693545 0.0018002238
000340 e0 8f 16 bd 03 6e 99 3b 39 80 06 bd 23 24 3d 3c
       -0.036758304 0.004682304 -0.032837126 0.01154426
000350 38 aa 05 bc 99 7b ff bc e3 07 2b 3d 13 2e 05 bc
       -0.008158259 -0.031186866 0.04175557 -0.008128661
000360 c5 49 38 3c 4a 85 a5 bc 54 74 85 bc 2d c7 06 bc
       0.011248057 -0.020205159 -0.016290821 -0.008226198
000370 23 b5 63 bc 6e 7f 03 bc 61 d4 de bc 7e db 05 bd
       -0.013898167 -0.008025987 -0.02720088 -0.032680027
000380 4e 2c 2c bd 30 45 85 3b a1 81 95 bc bb 51 3f 3c
       -0.04203444 0.0040670857 -0.018250288 0.011677201
000390 db 73 a9 bc 2e 2d 7d 3c d2 51 f2 bc 0c fa d6 bc
       -0.020685127 0.015452666 -0.02958003 -0.026242279
0003a0 44 11 3d 3c ed 17 4a 3b 3e 20 1c 3c 80 bb ab bc
       0.011539761 0.0030837015 0.0095291715 -0.02096343
0003b0 6f ca 9d 3c 49 47 8d 3b ae f9 32 bc 81 d0 f4 3c
       0.019261567 0.0043114764 -0.010923786 0.029884579
0003c0 61 6a 00 3c 55 eb 80 3c da fc 0b bc e3 f7 c3 bb
       0.007837863 0.015737215 -0.008544171 -0.005980478
0003d0 16 b2 cd bc 59 33 28 bc c3 61 37 bc 5b b7 01 bc
       -0.025109332 -0.0102661485 -0.011192742 -0.0079172505
0003e0 94 3c 4f bc f4 38 eb bc ed 2f 29 bb 05 8d e8 3b
       -0.01264872 -0.02871368 -0.002581592 0.007096889
0003f0 47 a1 d4 3c 0c b9 1a bd 96 0e 42 3a 49 7e bb 3c
       0.02595581 -0.03777413 0.0007402686 0.022887366

conv3.0.bias f4 [64]
000000 8e 7d 2a bd 83 5a a4 3c 89 91 b3 bc eb 2b dd 39
       -0.041623645 0.02006269 -0.021919983 0.00042185126
000010 ce 27 f6 b9 87 aa 0c bd 9a b8 e6 3c 5b bf 4d bc
       -0.00046950433 -0.034342315 0.028164197 -0.01255783
000020 b0 c8 be 3c d1 77 3c bb 68 92 84 bc 68 08 be 3c
       0.023289055 -0.002875794 -0.016183093 0.023197368
000030 99 3c da bc b1 24 42 bd 28 9c 7e bc a7 92 af bc
       -0.026640223 -0.047398273 -0.01554016 -0.021432234
000040 1b 9c 72 bc e7 ac b1 bb 3b 08 4b bd c6 36 38 bd
       -0.014807726 -0.005422223 -0.049568396 -0.04497411
000050 c0 d4 60 3c 28 4b dd bc af 97 1d 3d 15 f1 67 3c
       0.013722599 -0.027013376 0.038474735 0.0141565995
000060 dd 59 ba b9 ba 91 8a bc 5f e5 94 3c a8 4a b6 3c
       -0.00035543638 -0.016915191 0.018175779 0.022252396
000070 98 8f 7f 3c 30 a0 2f 3d 2b 0a 0b 3c 65 c2 2b bb
       0.0155982 0.042877376 0.008486311 -0.0026208397
000080 f4 bd 30 bc 2d e4 21 bd 20 c2 1e bd 81 6f 10 3c
       -0.010787476 -0.039524246 -0.03875935 0.008815647
000090 b7 99 29 bc ba 35 4d 3d 1a fe 00 bd 0b 12 c1 bb
       -0.01035159 0.050100066 -0.03149233 -0.0058920435
0000a0 7e 82 37 bd 4e af 5a 3c c6 f3 03 3c 21 83 8b bb
       -0.04480218 0.01334746 0.008053726 -0.004257575
0000b0 1c 4f 18 bd 0e 50 0a 3d 33 67 0e 3d 07 60 35 bd
       -0.03718482 0.033767752 0.034766387 -0.044281032
0000c0 6a 6b 11 3c b6 aa 99 3c 05 4e 93 3b 1d b2 0d bd
       0.008875707 0.01875816 0.0044953846 -0.03459369
0000d0 71 2a 16 3d f0 0d 54 bd f7 19 16 bd d7 b9 06 bd
       0.03666157 -0.051771104 -0.036645856 -0.032892074
0000e0 0e e3 d1 3b 92 86 ed bc ef 0d 53 bb b4 c1 14 bd
       0.006405241 -0.028994832 -0.003220435 -0.036317542
0000f0 ce c2 31 bc 9a 32 85 bc 37 46 89 ba 43 8f 06 bc
       -0.010849668 -0.01625948 -0.0010473196 -0.008212867

out.weight f4 [4, 4096]
000000 a9 78 17 bb 5d f0 18 bb ce 93 b9 3b 92 bc 0c bc
       -0.002311269 -0.0023336627 0.0056633716 -0.008589881
000010 d8 2d 1d 3b 7b d8 69 3c c5 26 ce 3c 57 7b b0 ba
       0.0023983624 0.014272804 0.025164971 -0.0013464493
000020 09 92 db 3b 3d ec 12 bc 56 2b e7 3b 5a c2 46 3c
       0.0067007584 -0.008967456 0.0070547266 0.012131298
000030 fb 7b d1 bc 24 f4 56 3c b3 3f b0 ba ff 16 c6 3c
       -0.025571814 0.013119731 -0.0013446718 0.024180887
000040 28 c7 cf 3b 82 c8 68 3c 62 19 fb bc 88 5d 97 bc
       0.00634088 0.014207961 -0.030651752 -0.018477216
000050 2a 86 08 bd 93 eb b4 bb 2a 8b a1 3b 80 f3 19 bc
       -0.033331074 -0.0055212467 0.0049299197 -0.009396434
000060 65 b2 5b bc 27 57 67 3c 9d 89 35 bb fd c7 b4 ba
       -0.013409232 0.0141199 -0.0027700432 -0.0013792511
000070 88 ea 12 bc 7a b9 9b bc 2b fa 5c bc 3f 35 81 3b
       -0.008967049 -0.01900934 -0.013487379 0.003943115
000080 e0 54 1d 3b 87 10 ca 38 09 c7 19 bc ed 64 e1 bc
       0.0024006888 9.635189e-05 -0.009385833 -0.027513945
000090 0d b6 ce 3b 6b 66 b8 b9 fa fa b7 bb b0 84 a9 ba
       0.0063083232 -0.00035171522 -0.0056146355 -0.0012933221
0000a0 75 6c 4a 3c 96 14 f0 bb 78 cf 37 bb bf cb f8 3b
       0.01235496 -0.007326673 -0.0028047245 0.007592648
0000b0 05 6c a1 b9 5c af 3b bc 2b 19 07 bc 50 16 50 3b
       -0.00030788794 -0.011455383 -0.008245747 0.003175158
0000c0 85 c9 d5 bc 80 b1 da bb ee f3 46 3b 96 d5 65 bc
       -0.026097069 -0.0066739917 0.0030357796 -0.014027974
0000d0 1c 85 08 bd 7b 2c 6e 3b 0f 18 0e bc 96 34 04 ba
       -0.033330068 0.003634243 -0.008672728 -0.00050432363
0000e0 59 32 f0 3b 52 bb ee ba 33 2e dd 3c 15 d0 0e bc
       0.0073302207 -0.0018213785 0.026999569 -0.008716603
0000f0 72 bf c4 ba f8 21 21 bc eb d9 73 3c e5 45 38 bc
       -0.0015010668 -0.009834759 0.014883499 -0.011247133
000100 5a 84 02 3b 0e 2b a2 3c ff 52 40 b8 0e ca b0 3b
       0.0019915313 0.01979592 -4.5853663e-05 0.0053951805
000110 70 e5 95 bc 74 24 c5 3a db e6 61 3c 5d ac cf 3b
       -0.01829788 0.0015040771 0.01378795 0.006337686
000120 7c 49 f2 39 02 64 5c 3c d0 52 92 bb 0e 2a e2 bb
       0.00046212587 0.013451578 -0.0044654384 -0.006901986
000130 36 4c bb bb 37 ef 60 bc 4c be 15 3b 5a 72 6d 3c
       -0.005715872 -0.013728908 0.0022849021 0.014492596
000140 85 e1 7a 3c 44 18 57 bc 0e 79 7f 3c b4 9a 33 bc
       0.015312557 -0.013128344 0.0155928265 -0.010962177
000150 35 48 a0 bb 61 1a a8 bc c6 cc d0 ba 44 44 9c 39
       -0.0048914202 -0.020520391 -0.0015930168 0.000298055
000160 9c af b4 bb 46 01 31 3c 47 40 48 bb 29 56 90 bc
       -0.0055140983 0.010803526 -0.003055589 -0.01761921
000170 6e e4 31 3b 60 2e 9d bc 52 05 12 3c 34 6f 39 3c
       0.0027144211 -0.019187152 0.008912401 0.011318017
000180 6a e3 68 bb 95 17 72 3c fe 8f 9d bb f3 e6 38 bc
       -0.003553594 0.01477613 -0.004808425 -0.011285531
000190 dc ea 69 3b 21 58 f1 bb 03 4b 11 bc d5 45 8b 3c
       0.0035692966 -0.007365242 -0.008867982 0.017001072
0001a0 35 f5 20 3b 6d 2d 7c 39 9a 7e 3e 3b 47 c9 a7 bc
       0.0024560217 0.00024049515 0.002906716 -0.020481719
0001b0 9b fb 51 3a 99 60 87 bc 70 7e 72 3c 06 cf b5 ba
       0.00080102094 -0.016525554 0.014800653 -0.0013870902
0001c0 00 f4 4d 3c 4f e8 c8 3b 89 4f a3 3c 89 da b8 bc
       0.012570381 0.006131209 0.019935386 -0.022565143
0001d0 55 f6 57 bc bb 76 13 3b d0 85 ab bb 16 27 1b 3c
       -0.013181289 0.0022501189 -0.0052344576 0.009469768
0001e0 f8 95 de bb ea 26 84 3c e7 b8 4d 3c fb b6 83 bc
       -0.00679278 0.016131837 0.012556291 -0.016078463
0001f0 c2 0d f8 bc 7e 9d 48 3c 97 41 2b 3b 8f b0 10 bc
       -0.030279998 0.01224458 0.0026131624 -0.008831157
000200 46 1b 79 3c 03 4a a5 bb 19 65 00 bd d5 1c 86 bb
       0.015204256 -0.0050442233 -0.031346414 -0.0040927925
000210 7d a9 c3 3b 86 89 10 bc bc 36 fc 3b 42 78 aa bc
       0.0059711323 -0.008821851 0.0076969545 -0.020809297
000220 4e 80 8a bc 78 22 69 3b fe b3 03 bc 10 bf 29 bb
       -0.016906884 0.0035573523 -0.008038519 -0.0025901236
000230 64 0e 65 bb 5e 77 0d bc 04 49 cc bb d8 fc a3 bb
       -0.0034951204 -0.008634416 -0.00623429 -0.0050045066
000240 98 1a 9a 3c da 60 94 3c 69 4c 5b bb 0e 67 82 b9
       0.018811509 0.018112589 -0.0033462292 -0.00024872314
000250 97 d7 6e bc 8d 6a a8 3b 8c e7 b8 bc 30 c0 1b 3c
       -0.014577768 0.005139655 -0.022571348 0.00950627
000260 26 1e a3 3b fc ae 27 bc 1b 28 53 3c 44 03 e7 3b
       0.004977959 -0.010234591 0.01288798 0.00704995
000270 07 7a 6a 3b 52 2e 62 ba 68 4e c1 bb a2 5a bd bb
       0.00357783 -0.0008628118 -0.0058992393 -0.0057786265
000280 93 89 b8 b9 45 25 a9 bc ca 44 3f bc 3a 01 63 3b
       -0.00035197716 -0.020647654 -0.011674115 0.0034638182
000290 a6 de d9 bb a2 54 d5 bb 6f 9a 7e 3b 6b 11 ab bc
       -0.006648856 -0.006510333 0.0038849374 -0.020882329
0002a0 72 d3 88 bb e5 78 9d bb 52 23 35 bb 73 03 b8 bc
       -0.004175597 -0.0048056715 -0.002763946 -0.022462582
0002b0 07 ca 0d 3b 80 f2 c2 bb 3c 38 31 bb 75 28 05 bc
       0.002163531 -0.0059493184 -0.0027041575 -0.0081273215
0002c0 da 10 ab 3c 6d aa 53 bc e2 a3 eb ba ba ed 3e bb
       0.020882059 -0.012919051 -0.0017977918 -0.0029133395
0002d0 a1 4c cb 3b 38 56 bc bc a0 fc fb bc ac 2e 6e bc
       0.0062042032 -0.022990331 -0.03076011 -0.014537495
0002e0 af 15 d8 3c 8e e1 bc bc 64 6f e4 bb 4d 26 2f bc
       0.026377527 -0.023056772 -0.0069712866 -0.010690284
0002f0 1c 07 d6 bc 4e 1c 00 bd 1f 4f a2 3a e9 86 6d bc
       -0.026126437 -0.031276993 0.0012383199 -0.014497497
000300 b0 db d9 bb e2 78 86 bc 6d 14 30 bc ff b6 ba bb
       -0.0066485032 -0.016415063 -0.010747057 -0.0056980844
000310 b9 fa b6 3b 40 fe f2 bb 3f f5 0c 3c d4 75 e5 bb
       0.0055840877 -0.007415563 0.008603393 -0.0070025716
000320 0e 08 1a 3b 70 f4 99 bc f5 e9 64 bc b5 86 57 bc
       0.0023503336 -0.018793315 -0.013971795 -0.013154675
000330 52 3e 71 bc 1d 87 36 3b 80 60 81 bb f7 0f 38 bb
       -0.014724331 0.002785153 -0.0039482713 -0.0028085688
000340 eb 11 17 3c f9 50 41 bc be 5f 8b 3b d2 a6 08 3b
       0.009220581 -0.011799091 0.0042533567 0.0020851386
000350 3a 25 77 bc 65 c6 6e bc c9 31 64 bc 06 89 59 bc
       -0.015084559 -0.014573668 -0.013927885 -0.013277298
000360 cf 10 1f ba 7e 48 2a bc a6 f8 0a 3b 82 98 e1 3b
       -0.00060678733 -0.01039326 0.0021205335 0.0068846354
000370 c4 a4 19 3b 86 27 5d 3b b3 a0 73 3b 6f 78 e3 bb
       0.0023444155 0.0033745482 0.0037174642 -0.006941847
000380 2b 8d 26 bb 94 91 a8 3a ac cf 31 bc cb 64 86 3b
       -0.0025413733 0.0012860768 -0.0108527355 0.004101371
000390 e9 7d 37 3c 1f b3 25 3b 3e 47 c8 3b e8 27 bd 3b
       0.011199453 0.0025283766 0.0061120084 0.0057725795
0003a0 6c ba af 3b a3 5d b9 ba bf 67 b7 3b 94 8b 32 bc
       0.0053627994 -0.0014142286 0.0055970843 -0.010897536
0003b0 47 38 26 ba 65 72 80 3c 77 ce 10 39 06 40 53 3b
       -0.00063407834 0.015679548 0.00013809824 0.0032234206
0003c0 b8 44 84 bc a3 1c cd bb f5 b2 88 bc 4c 41 09 3c
       -0.016146049 -0.0062595173 -0.016686896 0.008377384
0003d0 13 57 f6 bb d1 78 6d bb d9 fd 14 bc 98 b9 ba 3a
       -0.0075177043 -0.0036235342 -0.009093725 0.0014245985
0003e0 dc 2c bb 3a 9c 17 83 bc 3d d0 6d bb 05 d7 b1 bc
       0.0014280337 -0.016002469 -0.003628745 -0.021708975
0003f0 5c d5 58 3c 3e 37 f1 bb 2e 5c 94 3a c0 a6 0c 3c
       0.013234463 -0.0073613217 0.0011318976 0.008584678

out.bias f4 [4]
000000 83 16 bd bc a1 a6 e9 3b c1 4e b5 b9 ee a1 89 bd
       -0.023082023 0.0071304594 -0.00034581686 -0.06720339
